weights/kernel2.npy (npy, 129920 bytes, 1 tensors)

array f8 [96, 13, 13]
0	0xbf50888c0356b2b4	-0.0010091178240642486
1	0xbf50c7d56345e8fa	-0.0010242065301029877
2	0xbf50fc51233f40e3	-0.0010367195472902816
3	0xbf512594931a45b9	-0.0010465575145740382
4	0xbf51434b2eb4b1a7	-0.0010536417201577415
5	0xbf515537da616126	-0.0010579152526784623
6	0xbf515b35811fccbe	-0.001059343576795865
7	0xbf515537da616126	-0.0010579152526784623
8	0xbf51434b2eb4b1a7	-0.0010536417201577415
9	0xbf512594931a45b9	-0.0010465575145740382
10	0xbf50fc51233f40e3	-0.0010367195472902816
11	0xbf50c7d56345e8fa	-0.0010242065301029877
12	0xbf50888c0356b2b4	-0.0010091178240642486
13	0x3c3ef1f97e6e7c5c	1.6775433702953383e-18
14	0x3c3f686d81919914	1.7026268053270971e-18
15	0x3c3fcaa8dcae85d4	1.7234282105929089e-18
16	0x3c400bf212e4fad6	1.7397826347057185e-18
17	0x3c4027c0ab6ffb59	1.7515593636919046e-18
18	0x3c403886e5d4bbd9	1.758663568152062e-18
19	0x3c403e2231e5abb6	1.761038068076127e-18
20	0x3c403886e5d4bbd9	1.758663568152062e-18
21	0x3c4027c0ab6ffb59	1.7515593636919046e-18
22	0x3c400bf212e4fad6	1.7397826347057185e-18
23	0x3c3fcaa8dcae85d4	1.7234282105929089e-18
24	0x3c3f686d81919914	1.7026268053270971e-18
25	0x3c3ef1f97e6e7c5c	1.6775433702953383e-18
26	0x3f510917b2409851	0.0010397654923593078
27	0x3f514a4d2e3c29cd	0.0010553125111437578
28	0x3f518060fcc93261	0.0010682055609720009
29	0x3f51aae542e2ed80	0.001078342330898291
30	0x3f51c982dbfb4fff	0.001085641662872838
31	0x3f51dbfae585b864	0.0010900449907143223
32	0x3f51e22721d99af9	0.001091516699853022
33	0x3f51dbfae585b864	0.0010900449907143223
34	0x3f51c982dbfb4fff	0.001085641662872838
35	0x3f51aae542e2ed80	0.001078342330898291
36	0x3f518060fcc93261	0.0010682055609720009
37	0x3f514a4d2e3c29cd	0.0010553125111437578
38	0x3f510917b2409851	0.0010397654923593078
39	0x3f605f4e5a26b3d4	0.001998570472287112
40	0x3f609df9e08c53b2	0.002028453866282886
41	0x3f60d1f2c3815c69	0.002053236148678962
42	0x3f60facf35e0d4e6	0.002072720249112525
43	0x3f61183bc07f595e	0.0020867507009640204
44	0x3f6129fbb305ed71	0.002095214462483668
45	0x3f612fea63b34f6c	0.0020980432433165743
46	0x3f6129fbb305ed71	0.002095214462483668
47	0x3f61183bc07f595e	0.0020867507009640204
48	0x3f60facf35e0d4e6	0.002072720249112525
49	0x3f60d1f2c3815c69	0.002053236148678962
50	0x3f609df9e08c53b2	0.002028453866282886
51	0x3f605f4e5a26b3d4	0.001998570472287112
52	0x3f66b42613cc989f	0.002771448488050401
53	0x3f670b0df18d123e	0.0028128883681424457
54	0x3f67531ffb0a2d69	0.0028472542401851053
55	0x3f678bc9a7c3ea6f	0.002874273164818412
56	0x3f67b4971374dacc	0.0028937292769585007
57	0x3f67cd3434bbbc6c	0.0029054660461649753
58	0x3f67d56e478c0434	0.0029093889137361776
59	0x3f67cd3434bbbc6c	0.0029054660461649753
60	0x3f67b4971374dacc	0.0028937292769585007
61	0x3f678bc9a7c3ea6f	0.002874273164818412
62	0x3f67531ffb0a2d69	0.0028472542401851053
63	0x3f670b0df18d123e	0.0028128883681424457
64	0x3f66b42613cc989f	0.002771448488050401
65	0x3f6acf5293e1bdb4	0.003272687229631999
66	0x3f6b35f234cb0ba6	0.0033216219511315757
67	0x3f6b8b0d20b63a6e	0.003362203254887056
68	0x3f6bcdf640033c79	0.0033941087313916177
69	0x3f6bfe24dbd0d738	0.003417083730279293
70	0x3f6c1b35917513c2	0.0034309431318057812
71	0x3f6c24ec94bb4a3a	0.0034355755541153584
72	0x3f6c1b35917513c2	0.0034309431318057812
73	0x3f6bfe24dbd0d738	0.003417083730279293
74	0x3f6bcdf640033c79	0.0033941087313916177
75	0x3f6b8b0d20b63a6e	0.003362203254887056
76	0x3f6b35f234cb0ba6	0.0033216219511315757
77	0x3f6acf5293e1bdb4	0.003272687229631999
78	0x3f6c3b5400000000	0.0034462586045265198
79	0x3f6ca76500000000	0.003497788682579994
80	0x3f6d010340000000	0.003540521953254938
81	0x3f6d477900000000	0.003574119880795479
82	0x3f6d7a35c0000000	0.0035983133129775524
83	0x3f6d98d120000000	0.003612907836213708
84	0x3f6da30c00000000	0.0036177858710289
85	0x3f6d98d120000000	0.003612907836213708
86	0x3f6d7a35c0000000	0.0035983133129775524
87	0x3f6d477900000000	0.003574119880795479
88	0x3f6d010340000000	0.003540521953254938
89	0x3f6ca76500000000	0.003497788682579994
90	0x3f6c3b5400000000	0.0034462586045265198
91	0x3f6acf5293e1bdb4	0.003272687229631999
92	0x3f6b35f234cb0ba6	0.0033216219511315757
93	0x3f6b8b0d20b63a6e	0.003362203254887056
94	0x3f6bcdf640033c79	0.0033941087313916177
95	0x3f6bfe24dbd0d738	0.003417083730279293
96	0x3f6c1b35917513c2	0.0034309431318057812
97	0x3f6c24ec94bb4a3a	0.0034355755541153584
98	0x3f6c1b35917513c2	0.0034309431318057812
99	0x3f6bfe24dbd0d738	0.003417083730279293
100	0x3f6bcdf640033c79	0.0033941087313916177
101	0x3f6b8b0d20b63a6e	0.003362203254887056
102	0x3f6b35f234cb0ba6	0.0033216219511315757
103	0x3f6acf5293e1bdb4	0.003272687229631999
104	0x3f66b42613cc989f	0.002771448488050401
105	0x3f670b0df18d123e	0.0028128883681424457
106	0x3f67531ffb0a2d69	0.0028472542401851053
107	0x3f678bc9a7c3ea6f	0.002874273164818412
108	0x3f67b4971374dacc	0.0028937292769585007
109	0x3f67cd3434bbbc6c	0.0029054660461649753
110	0x3f67d56e478c0434	0.0029093889137361776
111	0x3f67cd3434bbbc6c	0.0029054660461649753
112	0x3f67b4971374dacc	0.0028937292769585007
113	0x3f678bc9a7c3ea6f	0.002874273164818412
114	0x3f67531ffb0a2d69	0.0028472542401851053
115	0x3f670b0df18d123e	0.0028128883681424457
116	0x3f66b42613cc989f	0.002771448488050401
117	0x3f605f4e5a26b3d4	0.001998570472287112
118	0x3f609df9e08c53b2	0.002028453866282886
119	0x3f60d1f2c3815c69	0.002053236148678962
120	0x3f60facf35e0d4e6	0.002072720249112525
121	0x3f61183bc07f595e	0.0020867507009640204
122	0x3f6129fbb305ed71	0.002095214462483668
123	0x3f612fea63b34f6c	0.0020980432433165743
124	0x3f6129fbb305ed71	0.002095214462483668
125	0x3f61183bc07f595e	0.0020867507009640204
126	0x3f60facf35e0d4e6	0.002072720249112525
127	0x3f60d1f2c3815c69	0.002053236148678962
128	0x3f609df9e08c53b2	0.002028453866282886
129	0x3f605f4e5a26b3d4	0.001998570472287112
130	0x3f510917b2409851	0.0010397654923593078
131	0x3f514a4d2e3c29cd	0.0010553125111437578
132	0x3f518060fcc93261	0.0010682055609720009
133	0x3f51aae542e2ed80	0.001078342330898291
134	0x3f51c982dbfb4fff	0.001085641662872838
135	0x3f51dbfae585b864	0.0010900449907143223
136	0x3f51e22721d99af9	0.001091516699853022
137	0x3f51dbfae585b864	0.0010900449907143223
138	0x3f51c982dbfb4fff	0.001085641662872838
139	0x3f51aae542e2ed80	0.001078342330898291
140	0x3f518060fcc93261	0.0010682055609720009
141	0x3f514a4d2e3c29cd	0.0010553125111437578
142	0x3f510917b2409851	0.0010397654923593078
143	0x3c3ef1f97e6e7c5c	1.6775433702953383e-18
144	0x3c3f686d81919914	1.7026268053270971e-18
145	0x3c3fcaa8dcae85d4	1.7234282105929089e-18
146	0x3c400bf212e4fad6	1.7397826347057185e-18
147	0x3c4027c0ab6ffb59	1.7515593636919046e-18
148	0x3c403886e5d4bbd9	1.758663568152062e-18
149	0x3c403e2231e5abb6	1.761038068076127e-18
150	0x3c403886e5d4bbd9	1.758663568152062e-18
151	0x3c4027c0ab6ffb59	1.7515593636919046e-18
152	0x3c400bf212e4fad6	1.7397826347057185e-18
153	0x3c3fcaa8dcae85d4	1.7234282105929089e-18
154	0x3c3f686d81919914	1.7026268053270971e-18
155	0x3c3ef1f97e6e7c5c	1.6775433702953383e-18
156	0xbf50888c0356b2b4	-0.0010091178240642486
157	0xbf50c7d56345e8fa	-0.0010242065301029877
158	0xbf50fc51233f40e3	-0.0010367195472902816
159	0xbf512594931a45b9	-0.0010465575145740382
160	0xbf51434b2eb4b1a7	-0.0010536417201577415
161	0xbf515537da616126	-0.0010579152526784623
162	0xbf515b35811fccbe	-0.001059343576795865
163	0xbf515537da616126	-0.0010579152526784623
164	0xbf51434b2eb4b1a7	-0.0010536417201577415
165	0xbf512594931a45b9	-0.0010465575145740382
166	0xbf50fc51233f40e3	-0.0010367195472902816
167	0xbf50c7d56345e8fa	-0.0010242065301029877
168	0xbf50888c0356b2b4	-0.0010091178240642486
169	0xbf64be8495b5824b	-0.0025322522684947716
170	0xbf62e1b8dd9a16d5	-0.0023048983246692725
171	0xbf60a1eec82d9401	-0.0020303405485031516
172	0xbf5c1453b16c8765	-0.0017138306918202614
173	0xbf56501a57730d63	-0.0013618714563542126
174	0xbf5016ee63aa5be3	-0.0009820297260938408
175	0xbf43181c50bb577c	-0.0005827081926905587
176	0xbf26a916b6adc351	-0.00017288591638078357
177	0x3f2f3772597bf30d	0.00023816367023945414
178	0x3f45027b4e099653	0.0006411649774917351
179	0x3f50d41a8eff142c	0.0010271319733743496
180	0x3f56bc3726e6a1d9	0.0013876474946333732
181	0x3f5c19baff179b75	0.0017151189934964926
182	0xbf5eb01d7110a1a0	-0.0018730437771044897
183	0xbf59806d98814b8c	-0.0015564985533458057
184	0xbf53b779e71e6ce1	-0.0012034120995625885
185	0xbf4ae7b12779b981	-0.0008210768709895762
186	0xbf3b603e4d4ed4a1	-0.00041772385639699856
187	0xbec3165b8441048b	-2.275387517542353e-06
188	0x3f3b422560f4e3ce	0.0004159299141580059
189	0x3f4b1cfba5e27f17	0.0008274296522081417
190	0x3f54095d8a8d9be7	0.0012229360092648135
191	0x3f5a1c2911c553d3	0.0015936280315902343
192	0x3f5fa4fd6030d31c	0.0019314264652738394
193	0x3f62430e1d086603	0.0022292400028731687
194	0x3f645366197332db	0.002481173909109164
195	0xbf50d920cf469d9a	-0.0010283298880525483
196	0xbf453aa98d8fde50	-0.0006478622336762527
197	0xbf300ff35e43519b	-0.00024509135824970504
198	0x3f2671c588a059ea	0.0001712373380661902
199	0x3f4364c382ced365	0.000591845955219311
200	0x3f50808c5828ec78	0.001007210784009142
201	0x3f5710ffada90697	0.0014078614100444858
202	0x3f5d3d7e9469c4f3	0.001784680951143533
203	0x3f61713e9c0f1fb6	0.0021291945308554395
204	0x3f63f01f69e806ea	0.00243383536803853
205	0x3f660de7a90784f1	0.002692177258936661
206	0x3f67bfe844bc0296	0.0028991257185001047
207	0x3f68fe888d78aa00	0.0030510584872633917
208	0xbf12ebace8f93b71	-7.217638835153667e-05
209	0x3f364c6c26520225	0.00034024849293959526
210	0x3f48da06974e5a74	0.000758412569313928
211	0x3f53375365760fac	0.0011728586594878894
212	0x3f59ca16251a1e8e	0.0015740600833015514
213	0x3f5ffe505669f583	0.001952722983019712
214	0x3f62d79fabb5b6c5	0.0023000830239457725
215	0x3f655dc344882494	0.002608186132651522
216	0x3f67832000ca84a7	0.0028701424656252974
217	0x3f693bf10aa07064	0.0030803401796344766
218	0x3f6a7f7b4cef56ed	0.00323461610922037
219	0x3f6b484b15dc2744	0.0033303705703290627
220	0x3f6b94549e624a25	0.00336662795150146
221	0x3f4dc59830841529	0.0009085648644321698
222	0x3f559534444018a4	0.0013173113266034342
223	0x3f5c16c9af031fa6	0.0017144174162684127
224	0x3f61202cf704a9ad	0.0020905378552431215
225	0x3f63f6348995c4f5	0.0024367357370286232
226	0x3f667c34e9b5b54b	0.0027447732406275286
227	0x3f68a2ef010a43cc	0.003007380299387274
228	0x3f6a5da9e60f3ebc	0.0032184904416466525
229	0x3f6ba29b81c3ab62	0.00337343571128683
230	0x3f6c6b35f699aa53	0.003469090840373648
231	0x3f6cb4578a83f406	0.0035039624964370323
232	0x3f6c7e5aebca8deb	0.0034782195856040052
233	0x3f6bcd07ac990a72	0.003393664349262076
234	0x3f5dde74aa918425	0.001823057109753509
235	0x3f61f59082ff81ff	0.002192289590297713
236	0x3f64c0b9c22e1be3	0.0025333049865738796
237	0x3f673f13fee4c6ba	0.002837695173320079
238	0x3f6960c8f310a9a9	0.00309790847724863
239	0x3f6b1855bb80d678	0.003307502218400423
240	0x3f6c5aff63c68e2d	0.003461359794714422
241	0x3f6d212d8acbb7a7	0.003555859517624566
242	0x3f6d66aa45706cfb	0.003588993607548494
243	0x3f6d2ac193b06257	0.003560426788237241
244	0x3f6c70426ee088ca	0.0034714982530355864
245	0x3f6b3d5e85e45fa0	0.0033251615669875473
246	0x3f699b6c690e81a8	0.0031258695020854495
247	0x3f652ef45a8288b4	0.0025858662157399407
248	0x3f679e47ef9f884f	0.002883091449789744
249	0x3f69b49e3cfd6d22	0.0031378832426704065
250	0x3f6b63dc570a55a2	0.003343515731396977
251	0x3f6ca07ce14c0370	0.0034944953025618994
252	0x3f6d61f701a193d7	0.0035867523520658295
253	0x3f6da30c00000000	0.0036177858710289
254	0x3f6d61f701a193d7	0.0035867523520658295
255	0x3f6ca07ce14c0370	0.0034944953025618994
